{"accuracy": [… "val_accuracy": [… "loss": [… "val_loss": [… "score": [3.2001688480377197, 0.5175438523292542], "model_summary": "Model: \"sequential_1\"\n_________________________________________________________________\nLayer (type)                 Output Shape              Param #   \n=================================================================\ndropout_1 (Dropout)          (None, 60, 25, 3)         0         \n_________________________________________________________________\nconv2d_1 (Conv2D)            (None, 58, 23, 512)       14336     \n_________________________________________________________________\nbatch_normalization_1 (Batch (None, 58, 23, 512)       2048      \n_________________________________________________________________\nconv2d_2 (Conv2D)            (None, 56, 21, 256)       1179904   \n_________________________________________________________________\nbatch_normalization_2 (Batch (None, 56, 21, 256)       1024      \n_________________________________________________________________\nflatten_1 (Flatten)          (None, 301056)            0         \n_________________________________________________________________\ndense_1 (Dense)              (None, 128)               38535296  \n_________________________________________________________________\ndense_2 (Dense)              (None, 128)               16512     \n_________________________________________________________________\ndropout_2 (Dropout)          (None, 128)               0         \n_________________________________________________________________\ndense_3 (Dense)              (None, 64)                8256      \n_________________________________________________________________\ndense_4 (Dense)              (None, 5)                 325       \n=================================================================\nTotal params: 39,757,701\nTrainable params: 39,756,165\nNon-trainable params: 1,536\n_________________________________________________________________\n"}