{"accuracy": [… "val_accuracy": [… "loss": [… "val_loss": [… "score": [0.37191063165664673, 0.821052610874176], "model_summary": "Model: \"sequential_1\"\n_________________________________________________________________\nLayer (type)                 Output Shape              Param #   \n=================================================================\nconv2d_1 (Conv2D)            (None, 62, 62, 96)        34944     \n_________________________________________________________________\nmax_pooling2d_1 (MaxPooling2 (None, 31, 31, 96)        0         \n_________________________________________________________________\nconv2d_2 (Conv2D)            (None, 21, 21, 256)       2973952   \n_________________________________________________________________\nmax_pooling2d_2 (MaxPooling2 (None, 10, 10, 256)       0         \n_________________________________________________________________\nconv2d_3 (Conv2D)            (None, 8, 8, 384)         885120    \n_________________________________________________________________\nconv2d_4 (Conv2D)            (None, 6, 6, 384)         1327488   \n_________________________________________________________________\nconv2d_5 (Conv2D)            (None, 4, 4, 256)         884992    \n_________________________________________________________________\nmax_pooling2d_3 (MaxPooling2 (None, 2, 2, 256)         0         \n_________________________________________________________________\nflatten_1 (Flatten)          (None, 1024)              0         \n_________________________________________________________________\ndense_1 (Dense)              (None, 4096)              4198400   \n_________________________________________________________________\ndropout_1 (Dropout)          (None, 4096)              0         \n_________________________________________________________________\ndense_2 (Dense)              (None, 4096)              16781312  \n_________________________________________________________________\ndropout_2 (Dropout)          (None, 4096)              0         \n_________________________________________________________________\ndense_3 (Dense)              (None, 1000)              4097000   \n_________________________________________________________________\ndropout_3 (Dropout)          (None, 1000)              0         \n_________________________________________________________________\ndense_4 (Dense)              (None, 5)                 5005      \n=================================================================\nTotal params: 31,188,213\nTrainable params: 31,188,213\nNon-trainable params: 0\n_________________________________________________________________\n"}