{"accuracy": [… "val_accuracy": [… "loss": [… "val_loss": [… "score": [0.007233540993183851, 0.9755555391311646], "model_summary": "Model: \"sequential_1\"\n_________________________________________________________________\nLayer (type)                 Output Shape              Param #   \n=================================================================\ndropout_1 (Dropout)          (None, 4500)              0         \n_________________________________________________________________\ndense_1 (Dense)              (None, 512)               2304512   \n_________________________________________________________________\ndense_2 (Dense)              (None, 256)               131328    \n_________________________________________________________________\ndense_3 (Dense)              (None, 128)               32896     \n_________________________________________________________________\ndense_4 (Dense)              (None, 5)                 645       \n=================================================================\nTotal params: 2,469,381\nTrainable params: 2,469,381\nNon-trainable params: 0\n_________________________________________________________________\n"}