{"accuracy": [… "val_accuracy": [… "loss": [… "val_loss": [… "score": [0.6036979556083679, 0.9100000262260437], "model_summary": "Model: \"model_1\"\n__________________________________________________________________________________________________\nLayer (type)                    Output Shape         Param #     Connected to                     \n==================================================================================================\njoints (InputLayer)             (None, 60, 25, 3)    0                                            \n__________________________________________________________________________________________________\njoints_diff (InputLayer)        (None, 60, 25, 3)    0                                            \n__________________________________________________________________________________________________\nconv2d_1 (Conv2D)               (None, 60, 25, 64)   256         joints[0][0]                     \n__________________________________________________________________________________________________\nconv2d_3 (Conv2D)               (None, 60, 25, 64)   256         joints_diff[0][0]                \n__________________________________________________________________________________________________\nbatch_normalization_1 (BatchNor (None, 60, 25, 64)   256         conv2d_1[0][0]                   \n__________________________________________________________________________________________________\nbatch_normalization_3 (BatchNor (None, 60, 25, 64)   256         conv2d_3[0][0]                   \n__________________________________________________________________________________________________\nleaky_re_lu_1 (LeakyReLU)       (None, 60, 25, 64)   0           batch_normalization_1[0][0]      \n__________________________________________________________________________________________________\nleaky_re_lu_3 (LeakyReLU)       (None, 60, 25, 64)   0           batch_normalization_3[0][0]      \n__________________________________________________________________________________________________\nconv2d_2 (Conv2D)               (None, 60, 25, 64)   12352       leaky_re_lu_1[0][0]              \n__________________________________________________________________________________________________\nconv2d_4 (Conv2D)               (None, 60, 25, 64)   12352       leaky_re_lu_3[0][0]              \n__________________________________________________________________________________________________\nbatch_normalization_2 (BatchNor (None, 60, 25, 64)   256         conv2d_2[0][0]                   \n__________________________________________________________________________________________________\nbatch_normalization_4 (BatchNor (None, 60, 25, 64)   256         conv2d_4[0][0]                   \n__________________________________________________________________________________________________\nleaky_re_lu_2 (LeakyReLU)       (None, 60, 25, 64)   0           batch_normalization_2[0][0]      \n__________________________________________________________________________________________________\nleaky_re_lu_4 (LeakyReLU)       (None, 60, 25, 64)   0           batch_normalization_4[0][0]      \n__________________________________________________________________________________________________\ndropout_1 (Dropout)             (None, 60, 25, 64)   0           leaky_re_lu_2[0][0]              \n__________________________________________________________________________________________________\ndropout_2 (Dropout)             (None, 60, 25, 64)   0           leaky_re_lu_4[0][0]              \n__________________________________________________________________________________________________\nconcatenate_1 (Concatenate)     (None, 60, 25, 128)  0           dropout_1[0][0]                  \n                                                                 dropout_2[0][0]                  \n__________________________________________________________________________________________________\nconv2d_5 (Conv2D)               (None, 60, 25, 32)   4128        concatenate_1[0][0]              \n__________________________________________________________________________________________________\nbatch_normalization_5 (BatchNor (None, 60, 25, 32)   128         conv2d_5[0][0]                   \n__________________________________________________________________________________________________\nleaky_re_lu_5 (LeakyReLU)       (None, 60, 25, 32)   0           batch_normalization_5[0][0]      \n__________________________________________________________________________________________________\nmax_pooling2d_1 (MaxPooling2D)  (None, 30, 12, 32)   0           leaky_re_lu_5[0][0]              \n__________________________________________________________________________________________________\ndropout_3 (Dropout)             (None, 30, 12, 32)   0           max_pooling2d_1[0][0]            \n__________________________________________________________________________________________________\nconv2d_6 (Conv2D)               (None, 30, 12, 64)   2112        dropout_3[0][0]                  \n__________________________________________________________________________________________________\nbatch_normalization_6 (BatchNor (None, 30, 12, 64)   256         conv2d_6[0][0]                   \n__________________________________________________________________________________________________\nleaky_re_lu_6 (LeakyReLU)       (None, 30, 12, 64)   0           batch_normalization_6[0][0]      \n__________________________________________________________________________________________________\nmax_pooling2d_2 (MaxPooling2D)  (None, 15, 6, 64)    0           leaky_re_lu_6[0][0]              \n__________________________________________________________________________________________________\ndropout_4 (Dropout)             (None, 15, 6, 64)    0           max_pooling2d_2[0][0]            \n__________________________________________________________________________________________________\nflatten_1 (Flatten)             (None, 5760)         0           dropout_4[0][0]                  \n__________________________________________________________________________________________________\ndense_1 (Dense)                 (None, 64)           368704      flatten_1[0][0]                  \n__________________________________________________________________________________________________\ndense_2 (Dense)                 (None, 5)            325         dense_1[0][0]                    \n==================================================================================================\nTotal params: 401,893\nTrainable params: 401,189\nNon-trainable params: 704\n__________________________________________________________________________________________________\n"}