{"accuracy": [… "val_accuracy": [… "loss": [… "val_loss": [… "score": [0.07408969104290009, 0.9359999895095825], "model_summary": "Model: \"sequential_1\"\n_________________________________________________________________\nLayer (type)                 Output Shape              Param #   \n=================================================================\ndropout_1 (Dropout)          (None, 4500)              0         \n_________________________________________________________________\ndense_1 (Dense)              (None, 512)               2304512   \n_________________________________________________________________\ndense_2 (Dense)              (None, 256)               131328    \n_________________________________________________________________\ndense_3 (Dense)              (None, 128)               32896     \n_________________________________________________________________\ndense_4 (Dense)              (None, 3)                 387       \n=================================================================\nTotal params: 2,469,123\nTrainable params: 2,469,123\nNon-trainable params: 0\n_________________________________________________________________\n"}